


initializing training with parameters :
            model : ConvNN_small(
  (conv1): Conv2d(1, 8, kernel_size=(3, 3), stride=(2, 2), padding=(1, 1))
  (conv2): Conv2d(8, 16, kernel_size=(3, 3), stride=(2, 2), padding=(1, 1))
  (conv3): Conv2d(16, 32, kernel_size=(3, 3), stride=(2, 2), padding=(1, 1))
  (relu): ReLU()
  (flat): Flatten(start_dim=1, end_dim=-1)
  (fc1): Linear(in_features=10400, out_features=128, bias=True)
  (fc2): Linear(in_features=128, out_features=2, bias=True)
),
            epochs : 20,
            criterion : loss_no_replay,
            optimizer : Adam (
Parameter Group 0
    amsgrad: False
    betas: (0.9, 0.999)
    capturable: False
    decoupled_weight_decay: False
    differentiable: False
    eps: 1e-08
    foreach: None
    fused: None
    lr: 0.0005
    maximize: False
    weight_decay: 0
…
complétée en 0min5.0sec. Estimation de temps restant : 0.0 minutes.


EPOCH 16/20 ///
complétée en 0min5.0sec. Estimation de temps restant : 0.0 minutes.


EPOCH 17/20 ///
complétée en 0min5.0sec. Estimation de temps restant : 0.0 minutes.


EPOCH 18/20 ///
complétée en 0min5.0sec. Estimation de temps restant : 0.0 minutes.


EPOCH 19/20 ///
complétée en 0min5.0sec. Estimation de temps restant : 0.0 minutes.


EPOCH 20/20 ///
complétée en 0min5.0sec. Estimation de temps restant : 0.0 minutes.



entraînement complet





initializing training with parameters :
            model : ConvNN_small(
  (conv1): Conv2d(1, 8, kernel_size=(3, 3), stride=(2, 2), padding=(1, 1))
  (conv2): Conv2d(8, 16, kernel_size=(3, 3), stride=(2, 2), padding=(1, 1))
  (conv3): Conv2d(16, 32, kernel_size=(3, 3), stride=(2, 2), padding=(1, 1))
  (relu): ReLU()
  (flat): Flatten(start_dim=1, end_dim=-1)
  (fc1): Linear(in_features=7072, out_features=128, bias=True)
  (fc2): Linear(in_features=128, out_features=2, bias=True)
),
            epochs : 20,
            criterion : loss_no_replay,
            optimizer : Adam (
Parameter Group 0
    amsgrad: False
    betas: (0.9, 0.999)
    capturable: False
    decoupled_weight_decay: False
    differentiable: False
    eps: 1e-08
    foreach: None
    fused: None
    lr: 0.0005
    maximize: False
    weight_decay: 0
…
complétée en 0min10.0sec. Estimation de temps restant : 1.0 minutes.


EPOCH 16/20 ///
complétée en 0min11.0sec. Estimation de temps restant : 1.0 minutes.


EPOCH 17/20 ///
complétée en 0min10.0sec. Estimation de temps restant : 0.0 minutes.


EPOCH 18/20 ///
complétée en 0min10.0sec. Estimation de temps restant : 0.0 minutes.


EPOCH 19/20 ///
complétée en 0min11.0sec. Estimation de temps restant : 0.0 minutes.


EPOCH 20/20 ///
complétée en 0min11.0sec. Estimation de temps restant : 0.0 minutes.



entraînement complet





initializing training with parameters :
            model : ConvNN_small(
  (conv1): Conv2d(1, 8, kernel_size=(3, 3), stride=(2, 2), padding=(1, 1))
  (conv2): Conv2d(8, 16, kernel_size=(3, 3), stride=(2, 2), padding=(1, 1))
  (conv3): Conv2d(16, 32, kernel_size=(3, 3), stride=(2, 2), padding=(1, 1))
  (relu): ReLU()
  (flat): Flatten(start_dim=1, end_dim=-1)
  (fc1): Linear(in_features=5408, out_features=128, bias=True)
  (fc2): Linear(in_features=128, out_features=2, bias=True)
),
            epochs : 1,
            criterion : loss_no_replay,
            optimizer : Adam (
Parameter Group 0
    amsgrad: False
    betas: (0.9, 0.999)
    capturable: False
    decoupled_weight_decay: False
    differentiable: False
    eps: 1e-08
    foreach: None
    fused: None
    lr: 0.0005
    maximize: False
    weight_decay: 0
…
